Altro/Python Handwritten Digit Recognition/src/LaNet5_model.pth (torch, 250814 bytes, 10 tensors)

conv_net.0.weight f4 [6, 1, 5, 5]
000000 12 42 a5 3c 69 7b 47 be b4 30 8f be 5e b6 d3 3c
       0.020173106 -0.19480671 -0.27966845 0.025843795
000010 12 f1 01 3e d3 0e 77 3d fb ec a5 3d ad eb 2d 3e
       0.12689617 0.06031687 0.08101841 0.16984434
000020 f8 1d b0 3c fd 4a 87 3d d3 35 1b 3e 18 83 c3 3e
       0.021498665 0.066061 0.15157251 0.38185954
000030 fa c7 11 3f f9 1b 05 3f 52 fd 77 3e 0e 5c 23 3e
       0.56945765 0.5199581 0.24217728 0.15953085
000040 53 63 a1 3e 0a 04 a7 3e 95 4c 2f 3e 1f 78 17 3e
       0.3152109 0.3262027 0.17119057 0.14791916
000050 fc 6c 86 3d 7e 2c a2 3d 62 60 83 bd 4c 81 8f be
       0.06563756 0.079186425 -0.06414868 -0.28028333
000060 bc 29 0b be bf 6d 6a 3b 1f 62 95 3d d7 c8 1a 3e
       -0.13590139 0.003577098 0.07294106 0.15115677
000070 e4 3e 9f 3e e4 1f 29 3e 98 2c fb 3d f7 c3 69 3e
       0.3110267 0.16516072 0.12264365 0.22828661
000080 02 bf e3 3c 8b 46 4f bd e8 95 b8 bc f8 0c 27 3d
       0.02780104 -0.050604384 -0.022532418 0.040783852
000090 65 ae 94 bd b8 c2 43 be ec 43 d0 bd 71 90 69 be
       -0.072598256 -0.19117248 -0.10169205 -0.22809006
0000a0 e3 7b 64 be c3 8b a2 be 5f 6a b6 be b9 b4 37 be
       -0.22312884 -0.31747255 -0.3562803 -0.17940034
0000b0 c3 5b a8 3d 0f 4f bb be 8e e4 4d be a5 f1 e9 bc
       0.08220627 -0.36583754 -0.20106718 -0.028557608
0000c0 fa 9d 3e be 46 76 23 3e 25 93 5a be 7b 89 f2 bd
       -0.18614951 0.15963086 -0.21345194 -0.118426286
0000d0 e6 c0 8d 3d c1 3e a2 bd 74 64 dc 3c 29 dd 28 bd
       0.06921558 -0.079221256 0.026903369 -0.04122654
0000e0 05 7a 59 3d 38 d6 c0 bd 15 68 87 bd e9 a2 92 bd
       0.053094883 -0.09415859 -0.06611649 -0.07159979
0000f0 eb 7d 40 3e c7 51 c4 3e aa 07 8a 3e 6e 3c 0d 3e
       0.18798034 0.3834364 0.26958972 0.13792583
000100 e1 1b 87 3e 3d 63 b8 3d 73 d3 9b 3e 0c 06 f5 3e
       0.26388457 0.09003303 0.3043476 0.47856176
000110 5b 6e 14 3e 07 da cb bd 51 38 f0 3d ec 9e 99 3e
       0.14495222 -0.09953695 0.117294915 0.3000406
000120 f9 0a 66 3e 40 92 57 3d 30 f7 40 bd 10 07 62 3e
       0.22465123 0.05262971 -0.047110736 0.22073007
000130 4f 39 3c 3c 25 53 90 3e a6 d8 98 3e 66 e0 b2 3e
       0.011488273 0.28188434 0.2985279 0.34936827
000140 5b 6b 1e be 1e 47 cc 3d 20 b1 ff 3d ff 11 57 bc
       -0.1547064 0.09974502 0.12484956 -0.013126849
000150 ae 7c d7 3d c6 9c 92 bd 56 0d 4a be 8c 24 3f be
       0.10521828 -0.071588084 -0.1973165 -0.18666285
000160 69 9c 87 3d b0 92 28 3e 57 ae 9e be 17 33 b8 be
       0.0662163 0.16462207 -0.30992386 -0.35976478
000170 2f f2 df bd da 46 01 3c 99 a7 00 3e 64 55 87 be
       -0.10934865 0.0078904275 0.12563933 -0.26432335
000180 33 36 8b be a9 d5 a4 be 1b c3 11 3e 27 f0 0f 3e
       -0.27189788 -0.3219426 0.14234583 0.14056455
000190 1a 11 b1 bc ef 45 00 be b9 64 51 3e 5c b2 3b 3e
       -0.0216146 -0.12526678 0.20448579 0.18329757
0001a0 de 94 9a bc 22 7f 83 3d 04 84 97 bc 57 ec ce 3e
       -0.018869814 0.06420733 -0.018495567 0.40414688
0001b0 98 d9 bf 3e 89 f4 44 3c e6 0c d9 3c c2 83 d5 3e
       0.37470698 0.012021192 0.026495408 0.41702086
0001c0 77 7f 15 3f 25 d4 3c 3e 67 45 11 bd 3e ae 17 3e
       0.5839762 0.18440302 -0.035466578 0.14812562
0001d0 d4 5e b0 3e e5 8a 92 3e 4f 9a d3 3c 66 70 c0 bd
       0.34447348 0.28621593 0.025830416 -0.09396438
0001e0 5c 41 96 bb c1 a7 4a 3e 5b 35 98 3e 6a bf 0b 3e
       -0.004585428 0.19790556 0.29728207 0.13647237
0001f0 ea ee 45 be 81 4a f3 bd 7c c7 82 3e de 2d d5 3d
       -0.1932942 -0.11879445 0.2554282 0.10409139
000200 0d 4a af 3e db f1 d4 bc 68 69 d6 3d 4d 97 c7 bc
       0.34236184 -0.025994232 0.104693234 -0.024364138
000210 3a 16 c0 3e f3 43 f3 3e ec ba 4a 3e de e0 16 3e
       0.37516958 0.4751278 0.19797868 0.14734218
000220 fd 32 6c 3d 75 43 7f 3e c1 a8 37 3e 91 6d b4 3d
       0.057665814 0.24928077 0.17935468 0.08809961
000230 16 d5 59 bd 74 2d fa bc 11 30 87 bd 98 b4 3d be
       -0.05318173 -0.030539252 -0.06600965 -0.18525922
000240 a0 ec 95 be 12 4c 3a 3d d9 85 32 be fd ed 51 3d
       -0.29282093 0.045482703 -0.17433871 0.051252354
000250 d2 cd 14 be ad 59 d3 be
       -0.14531639 -0.41279355

conv_net.0.bias f4 [6]
000000 e4 61 a1 bd 8d d2 0c be af f7 2d bd 37 e9 b2 bd
       -0.07879999 -0.13752194 -0.042472538 -0.087358885
000010 c6 19 b6 bd 72 87 6a be
       -0.08891635 -0.22903231

conv_net.3.weight f4 [16, 6, 5, 5]
000000 60 99 86 3d aa bb 14 3d d2 a1 e1 3c 0c 56 be 3c
       0.06572223 0.036311783 0.027542982 0.02323439
000010 67 a0 bc bc 60 df e2 3d e0 15 d4 3d 5c 2a 66 bc
       -0.023025705 0.11077762 0.10355735 -0.014048185
000020 25 7f ec bd 9e 99 2a bd 44 bf 28 3e 11 86 04 bd
       -0.115476884 -0.041650407 0.16479212 -0.03235442
000030 5b 78 4c be 80 03 ca bd be 40 54 be 23 b0 71 3d
       -0.19967787 -0.09863949 -0.20727822 0.059005868
000040 a8 27 bf bd 7d b0 16 be b2 bd 36 bd f6 26 17 be
       -0.09333736 -0.14715762 -0.0446145 -0.14760956
000050 7b a7 aa bd 61 65 57 bd d2 94 3a bd 89 8a 82 3d
       -0.083327256 -0.052586917 -0.045552082 0.0637408
000060 25 a5 31 bd 51 b0 1b be 34 0a 3c bd 0a 55 07 bd
       -0.043370385 -0.15203978 -0.045908168 -0.033040084
000070 77 fd e8 bd 01 09 5c 3c 24 1b 89 bd 5c cb 7e bd
       -0.113764696 0.013429881 -0.0669463 -0.062205657
000080 9d c6 7d 3d cd d3 51 3d 56 ef 0a 3d 07 cf 20 be
       0.06195699 0.05122738 0.033919655 -0.15703975
000090 3a 5c 85 3d bf ce 9b 3d 7c 5d cc 3d 12 5f 67 3e
       0.065117314 0.07607793 0.09978768 0.2259486
0000a0 e5 a9 7e 3d 6c 2d 11 3e 44 6e d7 3d 9e 29 83 3d
       0.062173743 0.14177483 0.105190784 0.06404422
0000b0 3b d9 0b 3e 40 40 33 3d 7d f1 19 3e 2b 3c 9d 3d
       0.13657086 0.043762445 0.15033527 0.07677492
0000c0 d1 fa 96 3b 2e 23 5c 3d 1e fe eb 3d 9c ad c2 3d
       0.0046075364 0.053744487 0.115230784 0.095057696
0000d0 b0 ad 4f 3d 07 00 9b 3d 28 b2 b8 3d e4 22 06 3e
       0.05070275 0.075683646 0.090183556 0.13099247
0000e0 24 fb ac 3d dc 29 88 3d e4 f0 0e bd 6d 4c b3 bc
       0.08446339 0.06648609 -0.0348977 -0.021887029
0000f0 92 f6 80 3d 38 7f a7 bd b6 4b 38 be e3 12 4b be
       0.062970296 -0.08178562 -0.17997631 -0.19831423
000100 82 55 f1 bd 2d 37 07 bd 1e a5 36 be 97 98 1c be
       -0.117838874 -0.033011604 -0.17836425 -0.15292583
000110 82 e4 dd bc da df e7 bd fd 57 f5 bd 41 1a c0 bd
       -0.0270865 -0.11321993 -0.11979673 -0.093800075
000120 57 a5 a4 bd 54 08 9c bc 77 48 a3 bd 21 f3 48 bd
       -0.080393486 -0.01904694 -0.07972806 -0.04905999
000130 52 89 5f be 07 f0 2b be e5 b8 0a be 41 77 95 bd
       -0.21829727 -0.16790782 -0.13547094 -0.072981365
000140 d2 e4 12 bd 32 6e cf bd 56 4c 02 be 72 2b 85 3d
       -0.03586275 -0.1012844 -0.12724432 0.06502427
000150 b1 2c cb 3d 28 ac 99 3b b0 2a dd bd 67 29 09 3e
       0.099206336 0.004689712 -0.107991576 0.133947
000160 f1 15 dc 3d aa 43 73 3e a0 4b 17 be c0 b0 00 bd
       0.107463725 0.2375628 -0.14774942 -0.031418562
000170 99 98 f8 3c 06 72 bf bc 16 86 23 3c 9c 50 9c 3d
       0.030346202 -0.0233698 0.009980699 0.076325625
000180 c0 48 c9 3d 18 23 81 3b a7 2c f9 bd c3 46 b2 bd
       0.09828329 0.003940951 -0.1216672 -0.08704903
000190 5e 54 c9 3d 1a 15 94 3d 03 ca 34 3d 72 b8 c8 3c
       0.09830545 0.07230587 0.044137966 0.024502013
0001a0 31 81 8f bc 9c c5 0d 3e 47 c5 c8 3d 7f fa cb 3d
       -0.017517658 0.13844913 0.09803253 0.09959888
0001b0 5a 61 8f 3d b9 b0 73 bc 27 d3 83 3d 0f 9a 9a bd
       0.0700099 -0.014873677 0.064367585 -0.075489156
0001c0 d2 63 b6 bd 02 cf 1d be ac dc 3f bd ba 75 4a 3d
       -0.08905758 -0.15410998 -0.04684131 0.04942868
0001d0 35 d5 df bd cf 99 15 be 6b f1 7d 38 7a a7 0a be
       -0.10929338 -0.14609455 6.054474e-05 -0.1354045
0001e0 06 d1 33 bc 43 e5 4e be f6 0e 46 bb c4 63 c4 bb
       -0.010975128 -0.20204644 -0.003022132 -0.0059933383
0001f0 75 8d 6f bd bd 54 76 3b de 21 86 3c a6 ec 28 3d
       -0.058484513 0.003758713 0.016373571 0.04124131
000200 57 89 14 bd 4a 54 8e bb 94 dd 78 3d c5 f1 4b 3e
       -0.03626379 -0.004343544 0.06075819 0.19916447
000210 1f 98 30 3e 48 83 af 3b d8 fd e3 39 5a 91 96 3e
       0.1724553 0.005356226 0.00043485942 0.2940777
000220 0a 21 02 3e 1f f3 c7 bd a5 6e ce b9 77 63 60 3c
       0.12707916 -0.097631685 -0.00039373818 0.013695589
000230 61 b1 50 3e 25 b3 1b bd 79 ef 84 be 87 9a e1 bd
       0.20380165 -0.038012642 -0.25963953 -0.11015802
000240 b9 83 6c be b5 10 25 3d 7a 41 45 be 1d fa f3 bd
       -0.23097123 0.040299136 -0.19263259 -0.1191294
000250 a3 8d e8 3c 7d 74 2c 3d 26 e7 8f bc 68 f2 9e 3c
       0.02838785 0.04210328 -0.017566275 0.019402698
000260 07 38 f1 3d 61 e6 eb 3d ea a6 20 3c 98 c0 f1 bc
       0.117782645 0.11518551 0.00980542 -0.029510781
000270 d7 95 78 bd db 15 d1 3d 75 dd 63 3e 0a 20 c3 3c
       -0.060689773 0.10209247 0.22252448 0.023818988
000280 bf 69 3c be 5d a7 8b bd 37 42 16 3e 51 a0 7b 3e
       -0.18399714 -0.068190314 0.14673696 0.24572875
000290 af 9e b7 3c 31 de d4 bc 2d 6a a3 3d 23 fa 79 3e
       0.022414533 -0.025984855 0.07979236 0.24411826
0002a0 ad e7 eb 3d 67 96 42 3c 86 7d 96 3d c7 76 27 3e
       0.11518798 0.011876679 0.073481604 0.16353904
0002b0 7c 49 8d 3e 97 08 fa bb da e7 11 bd 40 7f 18 bc
       0.27595127 -0.0076304185 -0.0356215 -0.0093076825
0002c0 41 d6 6b 3d da 5c 13 3d 11 69 3b bd 6a 52 f3 bd
       0.057577375 0.035977222 -0.045754496 -0.118809536
0002d0 c5 e4 9d 3c f7 3a 22 3e f2 85 a3 bc ed 1f a2 bd
       0.019274125 0.15842806 -0.019961331 -0.079162456
0002e0 9d b1 08 bc 23 4d bc 3d d6 f9 36 3d c1 b2 03 bc
       -0.008343128 0.091944 0.044671856 -0.008038224
0002f0 cd ec 51 be 39 7f 67 bd 38 0b a4 3d b1 07 c5 bc
       -0.20500489 -0.056517813 0.08009952 -0.02405152
000300 43 db 26 be d3 95 e1 bd 8e 73 8b 3d 6d e1 2f 3c
       -0.16294579 -0.11014905 0.0680915 0.010734898
000310 ff d1 01 bd b2 e1 21 bd bf c2 63 bd d5 85 2d 3d
       -0.03169441 -0.03952188 -0.055605646 0.04236396
000320 fc 8e d9 3c 48 78 d6 bd 7b ce e9 3d f3 10 5f 3e
       0.026557438 -0.104721606 0.11416336 0.2178381
000330 ae 90 0c 3e 7f 7d a0 bc f8 ca 08 be 2c cf a3 3c
       0.13727066 -0.019591091 -0.13358676 0.019996248
000340 88 6d b6 3e 0e a2 ae 3d 2e b3 5f bd c8 83 c1 bd
       0.3563044 0.08527003 -0.05461424 -0.094489634
000350 ac d6 0a 3e 73 53 a2 3e 86 bb 9d 3c 42 12 8e bd
       0.13558453 0.31704292 0.019254457 -0.06937076
000360 04 01 da 3d fa 7c 6c 3e a5 4c b2 3d dd a0 13 3a
       0.10644725 0.2309455 0.08706025 0.00056315755
000370 c6 e6 0e bd 47 b2 75 3d 44 8e 90 3e 7b 2a 7b 3b
       -0.03488805 0.05998447 0.2823354 0.003832488
000380 5d 45 fc 3c 78 b0 3a be 6c 21 de 3d 3b c7 e5 3d
       0.030794794 -0.1823138 0.108462185 0.11219641
000390 fa a3 74 be 79 a3 97 be 46 78 b9 bc 0c e3 66 3e
       -0.23890677 -0.29616907 -0.022640359 0.22547549
0003a0 e2 fe 42 3e 5f ce 57 be 01 aa 7d be d1 f5 c9 3d
       0.19042543 -0.21074818 -0.24771883 0.09861339
0003b0 7e 58 82 3e 9b 7e 42 3d d4 5b 97 be 00 29 3b be
       0.2545814 0.04748402 -0.29562247 -0.18277359
0003c0 57 fc 93 3b f8 01 0c 3e 1c 42 b3 bd bf 56 64 be
       0.0045161652 0.13672626 -0.08752844 -0.22298716
0003d0 08 67 26 bd f0 08 18 bc 10 9b 8a 3d 51 fe 0d be
       -0.040625602 -0.009279475 0.06767857 -0.13866545
0003e0 87 ab 52 be 2a fa 10 bd fd 02 72 3d d1 f9 68 bd
       -0.20573245 -0.035394825 0.05908488 -0.05687887
0003f0 8f 3e b8 3d aa 3c 88 3e 97 c6 e5 3d f3 4e 7d bd
       0.08996307 0.26608783 0.11219519 -0.06184287

conv_net.3.bias f4 [16]
000000 cf c6 c3 bd 29 84 ae bc 3c c0 a2 3c 02 0b 0e 3e
       -0.09559404 -0.021303253 0.019867055 0.13871387
000010 cc 04 8b bd 46 07 a3 3d 7d 88 79 bc 7e fa 8b 3b
       -0.06788024 0.07960372 -0.015230295 0.0042718044
000020 bf 8a a0 3d f0 15 77 3d b0 6c 9d bd b1 9f ac 3c
       0.07838964 0.060323656 -0.07686746 0.02107224
000030 17 09 8a 3d 4f ae 0a 3c 36 8b 92 3d 2a f5 9d bd
       0.06740015 0.00846441 0.07155459 -0.07712777

fc_net.1.weight f4 [120, 400]
000000 47 9e d4 3c 48 8f 58 3d 1b 57 cc bc 89 f4 70 3d
       0.025954379 0.05287102 -0.024943879 0.058826957
000010 9f 84 8d bb 27 54 39 3d 56 13 7c bb 33 94 48 3d
       -0.004318788 0.04524627 -0.0038463674 0.04896946
000020 36 a6 8b 3b fd c1 58 3d 99 1a 96 3b 7b 73 8d 3c
       0.0042617572 0.052919377 0.0045808074 0.01726698
000030 c5 62 ae bc 60 f8 f7 bd 86 b4 95 bc 32 25 5a 3a
       -0.021287331 -0.12107921 -0.018274557 0.00083215826
000040 5e 85 67 bc aa 1f 4a bd b4 8b b4 bd c2 9f 7b 3d
       -0.014130918 -0.049346603 -0.08815709 0.061431654
000050 1a 50 c4 3c d8 83 b9 3d 05 83 e7 3d a1 e3 72 3c
       0.023963977 0.0905835 0.11304287 0.014824779
000060 db ae 35 3d b5 7e d3 bc 2c 61 4a 3c 31 35 ab bc
       0.04435621 -0.025817255 0.012352269 -0.020899387
000070 03 9d 86 bd 3c a9 97 3c 0e f4 e6 bc fd 2b 8c bb
       -0.06572916 0.018513314 -0.028192546 -0.0042777047
000080 74 55 6e bd cd 9e 9d bc af bc 62 bd e0 7e 93 bd
       -0.058186963 -0.019240761 -0.055355724 -0.07201934
000090 8b 7f 0a 3d 02 af 0e bd 43 8a 8a 3c a1 f4 7e bd
       0.03381304 -0.03483487 0.016911631 -0.062245015
0000a0 5c d6 9e bc 06 f1 17 3c 32 1d 2d 3d 6f 12 29 3c
       -0.019389324 0.009273773 0.04226417 0.010319336
0000b0 84 00 bf 3c 37 55 ae 3c de 10 aa 3c 80 d0 7a 3d
       0.023315676 0.021280868 0.020759996 0.061233997
0000c0 b7 3e 1f 3c 58 c6 4f 3c b6 4b d3 bc ff ce e8 bb
       0.009719542 0.012681566 -0.025792938 -0.007104754
0000d0 bf 9b af bc a7 5f 8c bd e7 e7 03 3d 9d 97 09 be
       -0.02143657 -0.06854182 0.03220358 -0.13436742
0000e0 12 e8 21 bd 08 34 1c bc a3 e5 49 bd 91 82 3e 3d
       -0.03952796 -0.00953389 -0.049291264 0.046511237
0000f0 35 09 24 bc 21 ab ec bc 90 b4 3a bd 44 92 43 3d
       -0.010011961 -0.028890194 -0.045582354 0.04774691
000100 0e 82 9a 3c 9a f6 8a 3d d8 95 7a 3d fa d1 c1 3b
       0.018860843 0.06785317 0.06117806 0.0059149237
000110 90 9d 59 3d 87 3d f3 b9 50 b8 98 3d 48 f5 fe 3c
       0.05312878 -0.00046394413 0.0745703 0.031122819
000120 60 53 c3 bc 7c 5b 35 3d dc de bb bc 39 fd 7c 3d
       -0.023843467 0.0442767 -0.022933416 0.06176493
000130 c6 c9 39 3c 12 85 1f bd a7 67 74 bc fe f9 4e 3c
       0.01133961 -0.038945265 -0.014917291 0.012632845
000140 5a 39 81 3d 9e e4 53 bd 40 25 1a 3c c3 56 88 3c
       0.06309767 -0.0517317 0.009408295 0.016642934
000150 60 8a 38 3d f8 aa 2a 3d 7d cc 16 3d 09 9a 92 bc
       0.04505384 0.041666955 0.03681611 -0.017895715
000160 db ae ef bd 51 2f d1 3c ef 4d 1b ba 27 44 32 bd
       -0.11703273 0.025535258 -0.0005924394 -0.043522026
000170 0f 33 38 3d 71 d1 36 bd 91 13 b3 bb 29 ca bd 3a
       0.04497057 -0.044633333 -0.005464979 0.0014479804
000180 48 53 ca 3d 0b a3 39 3d a9 ba 99 3d 23 27 e6 3c
       0.09879166 0.045321506 0.07506306 0.028094834
000190 6d 33 48 37 46 2c 2f bb 08 2c 10 3d 4f 17 95 3d
       1.1932902e-05 -0.002672927 0.03519824 0.072798364
0001a0 76 66 96 3c a6 04 30 bd 21 45 c1 3d 3c 80 35 3d
       0.018359404 -0.042973183 0.094370134 0.044311747
0001b0 c3 2a 84 3d 74 10 b5 3c ec 49 a6 bd 3e 4e 15 3b
       0.06453469 0.022102572 -0.08119568 0.0022782232
0001c0 ad 39 a2 3b ec c0 b9 bd 81 98 4a bd 7a 75 c0 bc
       0.004950723 -0.0907 -0.049461845 -0.023493517
0001d0 b1 e8 b2 bd 54 1a 73 bd 44 77 bb bc 26 e9 84 3b
       -0.087357886 -0.05935128 -0.022884019 0.004056114
0001e0 81 92 a4 3c cc 1c ad 3c d0 5e 57 3d 8b 41 2b 3d
       0.02008939 0.021131895 0.052580655 0.041810554
0001f0 d6 57 31 3d 5d f4 81 bc 6c 08 2a bc 1b 17 86 bd
       0.043296658 -0.015863592 -0.0103779845 -0.06547376
000200 d2 8e c6 3c c5 da c0 bc 2b 47 6b bd b5 ac 48 3d
       0.024238024 -0.023541817 -0.057440918 0.04899283
000210 7f a7 e6 bc 91 b3 4d bd 52 b2 d5 3b dd 4a 83 3d
       -0.02815604 -0.050220076 0.0065215016 0.064107634
000220 f0 e2 9f 3d c4 05 a5 3d ed 63 9a 3d b0 43 cf 3d
       0.07806957 0.0805774 0.075385906 0.10120332
000230 99 e3 42 bd 2c 48 80 bc bf f0 50 bd aa ae ff bc
       -0.047580335 -0.015659414 -0.051010843 -0.031211216
000240 a2 8f c2 bc e5 ef 1f bc 72 98 c3 bd 83 0b 54 bd
       -0.02375013 -0.009761785 -0.09550561 -0.05176879
000250 47 51 47 bd 01 23 a6 bd 2d e5 0f 3c 80 66 ce 3c
       -0.048661496 -0.08112145 0.008782667 0.02519536
000260 2d 0f 0d bd 71 b2 2b bd d2 6f a1 3b 5b 6e 54 3d
       -0.0344383 -0.04191822 0.00492666 0.051863056
000270 aa a7 33 bd f5 29 3a 39 d3 0c b8 bc 6b de a9 bc
       -0.04386107 0.00017753972 -0.022467053 -0.02073594
000280 9c e2 eb bd f3 b2 ac bc 20 8f bb 3b 33 ed c3 bd
       -0.11517832 -0.021081423 0.005723849 -0.095667265
000290 08 59 97 b9 9a 0e 4f 3d 3a af 70 bd 17 e5 1a bd
       -0.00028867298 0.050551035 -0.05876086 -0.037816133
0002a0 3e a9 0e bd f2 31 d3 3d c3 29 81 3d 60 b4 74 3d
       -0.03482937 0.10312261 0.063067935 0.05974233
0002b0 05 bf 13 3c c9 fe 6c 3d 0b d5 03 3d 71 97 cc bd
       0.009017711 0.05786017 0.032185595 -0.09989823
0002c0 00 09 22 bd bf ef 85 bd be c6 ac 3c 53 0c f8 bc
       -0.039559364 -0.065398686 0.021090861 -0.030279314
0002d0 08 06 12 3d ff 35 9f 3d 5b 8c 42 bc 7d ff 65 bd
       0.035650283 0.07773971 -0.011874284 -0.056151856
0002e0 3b 36 59 3d ce f6 04 bd f7 94 bc 3d a5 55 04 bd
       0.053030234 -0.032461934 0.092081 -0.03230824
0002f0 9a c3 83 3c 70 84 22 3d 92 66 41 3d 64 9a 97 3d
       0.016084481 0.039677083 0.04721696 0.074024945
000300 b0 c8 ea 3c e0 92 de bc 57 08 f4 ba e7 1b 82 bc
       0.028660148 -0.027169645 -0.0018618208 -0.015882445
000310 bf ad 6b 3c 4d 14 b8 bc 26 1d 80 3c 15 bd b7 3d
       0.014384686 -0.022470618 0.015638899 0.089716114
000320 d4 d0 87 3c 7b 41 cd bb 63 95 47 3c 98 1e 26 bc
       0.01657907 -0.0062639094 0.012181613 -0.01013913
000330 e3 cc 2b 3c de 87 11 3b 1e 2e 23 bd 7f 5a 8f bc
       0.0104858605 0.0022206227 -0.039838903 -0.017499207
000340 12 4e aa 3b 86 8e b2 bd e7 52 6a 3d f6 89 72 3c
       0.005197295 -0.087185904 0.057207968 0.0148034
000350 74 fc 12 be da a1 fd 3d 12 13 77 bd ee 72 33 3d
       -0.14354116 0.12384386 -0.06032092 0.043810777
000360 83 b3 bf 3c 6a 96 0a bd d3 40 0c 3d 30 9e af bd
       0.023401028 -0.033834852 0.03424151 -0.08575094
000370 1f 48 f6 bd 1d 16 59 bd dc 0e 5f bd 91 17 65 bd
       -0.12025475 -0.052999604 -0.05445753 -0.055930678
000380 99 ee c1 bd 4f ae d9 bb 84 9d 3d bd ad 9f 07 bd
       -0.09469337 -0.0066430937 -0.046292797 -0.033111263
000390 c0 ba 90 3d 00 f8 d6 bd 46 f6 97 bc 92 f9 cb 3c
       0.0706687 -0.10496521 -0.01855005 0.024899278
0003a0 02 2f c9 bd 26 ee 02 bd 60 6f 05 bd 29 b9 c8 3d
       -0.09823419 -0.031965397 -0.03257692 0.098009415
0003b0 7d c2 5e bd 85 54 5b 3d d0 d8 37 3d 47 a8 8a ba
       -0.054384697 0.0535474 0.044884503 -0.0010578715
0003c0 f3 4f 62 3d 31 9b 9b 3c 08 ea d9 3d ff 9b 49 bd
       0.055252027 0.0189949 0.10640341 -0.049221035
0003d0 f5 50 31 bd a3 f5 5b bd 39 b9 de bc f2 87 fa 3b
       -0.043290097 -0.053701054 -0.02718793 0.0076456005
0003e0 bd 39 63 bd d1 44 de bb 9d 4a 1d bd 7e 53 9b bc
       -0.055474985 -0.006783106 -0.038401235 -0.01896071
0003f0 a0 b7 a1 3c 18 c9 88 bc c9 97 d7 bc e0 67 13 bc
       0.01974088 -0.016697451 -0.026317494 -0.008996934

fc_net.1.bias f4 [120]
000000 b9 c2 b2 bc 2c 4b cd bc 95 dd 7a 37 28 7f 98 3d
       -0.021821367 -0.025060259 1.4952752e-05 0.07446128
000010 9d fc cd bc e3 da c3 3c e2 b2 02 3c 0b f9 a8 3c
       -0.02514487 0.023908084 0.007977219 0.020626565
000020 5a 6f fa 3c 0b c7 01 bd 89 28 22 3d 98 0f f6 39
       0.030570675 -0.031683963 0.03958944 0.00046932395
000030 5f 73 b3 3b f7 c0 2c bd d7 99 39 bd 73 db ff bb
       0.0054764 -0.042176213 -0.04531273 -0.007808143
000040 8c cc 99 bc c0 50 21 3d 9e c4 4d bc af 26 4c bd
       -0.018774293 0.03938365 -0.012559084 -0.04984158
000050 52 55 1a bd f6 44 f2 3c cf 1a c8 bc f5 9d 84 bd
       -0.037679024 0.029573899 -0.024426846 -0.064754404
000060 5d 73 b4 3c cc 64 75 3c f8 74 bd 3c df d9 cb bc
       0.022027666 0.014977645 0.023127064 -0.024884162
000070 8f f8 42 bd c7 ee 7d 3c d0 f6 25 3c b8 78 19 3d
       -0.047600325 0.0154988235 0.0101296455 0.037468642
000080 be b9 a7 ba 29 84 c1 3c 3f 67 b6 3c 90 34 25 bd
       -0.0012796444 0.02362259 0.022266028 -0.04033333
000090 e4 1a bf 3c 27 16 28 3c 69 81 df bc cd 2e 8f 3b
       0.023328252 0.010259188 -0.027283387 0.0043695928
0000a0 22 d3 c0 3d 48 0b 08 bd 73 a0 39 3d 4a 07 e9 3c
       0.094152704 -0.033213884 0.045319032 0.028445859
0000b0 94 03 ca 3a 27 11 7a bd 26 c6 ba bc 29 dc dc bb
       0.0015412443 -0.061051514 -0.022799563 -0.0067401123
0000c0 ed 81 96 3c 04 83 76 bd 82 e8 b4 3d d3 67 b1 3d
       0.0183725 -0.06018354 0.0883341 0.08662381
0000d0 c5 51 cd 3b 09 71 95 bb 01 a2 90 bc 82 fe 2d 3c
       0.006265851 -0.004560594 -0.017655374 0.010619761
0000e0 95 af ad 3c 4c b2 00 bd 83 48 29 bd de ed 03 bd
       0.021201888 -0.031420037 -0.04132892 -0.03220927
0000f0 50 b0 0e 3d 3b a5 7e bd 6d 3d 19 3d 58 05 0a 3d
       0.034836113 -0.062169295 0.037412096 0.033696502
000100 18 2d 39 bd e7 b6 21 3c 47 c1 59 3b 82 ea 4c bd
       -0.04520902 0.0098702675 0.0033226775 -0.05002833
000110 a3 b1 0a bd 18 06 6f 3c 95 e5 20 bc dd 6d 3d bc
       -0.033860814 0.014588855 -0.009820362 -0.011561838
000120 11 7c 5f ba 17 d4 02 ba 1e e4 80 bd 5b 0e d3 3b
       -0.0008525262 -0.00049907103 -0.0629351 0.0064409203
000130 4a c1 a9 bc 58 3a be bc c0 fc a3 bc 06 e7 c4 bc
       -0.02072205 -0.02322118 -0.020017982 -0.024035942
000140 d1 75 18 3d 39 e0 eb 3b a8 47 6f 3c 7e 1e 0f 3d
       0.037221733 0.0071983603 0.0146044865 0.03494119
000150 28 bb 29 bb 6a e3 45 3d 17 93 46 bd 44 f2 ca bb
       -0.0025898907 0.048312582 -0.04848012 -0.006193431
000160 98 a8 bc bb d8 58 6b 3c 4f 80 20 3c 0e 8b 11 3d
       -0.0057574026 0.014364444 0.009796216 0.035533004
000170 63 fb 47 3c 83 d1 f5 bc be ac f6 bc fd 7c ef bc
       0.012205931 -0.03000713 -0.030111667 -0.029234404
000180 c8 d7 07 3d 96 2d 48 3d b1 80 ff bc c5 80 0c 3b
       0.03316477 0.0488716 -0.031189295 0.0021439057
000190 ba dd 2a 3d c0 6b 38 3d 63 ff 03 bd 38 20 fc bc
       0.04171536 0.045024633 -0.032225978 -0.030777082
0001a0 48 88 bb 3b 72 53 8f 3b af 36 5c bc e1 fb 33 3c
       0.005723033 0.004373961 -0.013440772 0.010985346
0001b0 a6 de b9 3c 5c 84 21 bc 89 17 2f bc 87 f5 cf bb
       0.022689175 -0.009858217 -0.010686764 -0.006346408
0001c0 9a 07 a6 bc be 2d 41 bd 99 d0 94 bd ce 53 1d 3d
       -0.020267297 -0.047162764 -0.07266349 0.03841
0001d0 b4 b2 75 bc 9a 6b 36 bd 78 19 9c bd cd 71 0f bc
       -0.014996219 -0.04453621 -0.07622045 -0.00875516

fc_net.3.weight f4 [84, 120]
000000 cc 1f 61 be 58 81 24 3e 20 57 8a 3b 7a d4 52 bd
       -0.21984786 0.16064966 0.004221812 -0.051472165
000010 63 1e 4f 3c 85 59 f2 bd ea 6e 69 bb d6 9e 74 3d
       0.012641522 -0.11833481 -0.0035619088 0.05972179
000020 fc a9 fd bc ca ac 7c 3d da f8 d7 3d be 5d 91 3a
       -0.030964844 0.061688222 0.105455115 0.001109056
000030 65 db b4 bc 7e 54 d3 bd ef 6e 27 be ee f3 9d 3d
       -0.022077272 -0.1031885 -0.16350912 0.077125415
000040 18 c8 c9 3b b1 77 ed bc b1 da 22 3d 84 35 30 bd
       0.0061578862 -0.028987737 0.03975934 -0.043019786
000050 30 c8 33 3e 23 8f d3 3d af b7 f4 3d 5f c8 5c 3e
       0.17556834 0.103300355 0.11949097 0.2156081
000060 ce 24 1e 3d 65 dc 05 3e 14 78 a2 3d 54 48 22 3d
       0.03860932 0.13072355 0.07933059 0.03961976
000070 74 7c c3 3d f5 02 a5 3b 37 79 56 bc c3 4d 6b bc
       0.09545222 0.005035753 -0.013090423 -0.014361802
000080 d9 24 28 be 03 6b 2c 3e e6 fb 58 3d 48 27 9e 3d
       -0.16420306 0.16837697 0.052974604 0.07722336
000090 db af 19 3e ec 36 1b 3d 9a fd 01 3e 99 c6 86 bc
       0.1500849 0.037894174 0.12694398 -0.01645212
0000a0 e3 ff a9 bd cc 6d 6e bd b9 f5 2f bd 9a 71 50 bd
       -0.0830076 -0.05821018 -0.04295895 -0.05088959
0000b0 19 35 6b bd 1f ea b1 3c d7 a4 bf bd ad 11 b4 3c
       -0.057423685 0.021718083 -0.093576126 0.021981085
0000c0 33 36 38 3e d8 c6 3f bd 68 7e f3 3d 27 b1 be 3d
       0.17989425 -0.04682049 0.118893445 0.09311133
0000d0 f3 51 35 3d e3 30 1b 3d dd c4 25 3d ca 99 28 be
       0.044267606 0.03788842 0.040470947 -0.16464916
0000e0 8c bb 32 be cc f1 c3 bc 31 73 8b 3e 0f bd bd 3c
       -0.17454356 -0.023919009 0.27236322 0.02316144
0000f0 36 f0 62 bd d2 0c a5 ba 5f d2 a3 bd d7 47 e6 bd
       -0.055404864 -0.0012592322 -0.079991095 -0.11244171
000100 94 82 04 bd f4 cf df bd c8 79 6d 3d 77 42 18 bd
       -0.03235109 -0.10928336 0.057977468 -0.03717276
000110 06 c6 09 3e 78 f2 ae 3d b7 3c 3f bc c2 72 81 3e
       0.13454446 0.08542341 -0.01167219 0.25282866
000120 ac 66 83 3d b7 88 8c 3e 4c 4d 1b 3e 13 52 50 bd
       0.064160675 0.27448055 0.15166205 -0.050859522
000130 c2 50 fb 3d e7 94 48 be 2c 83 68 3b b8 fc 0e 3d
       0.12271263 -0.19588052 0.0035478575 0.03490898
000140 5a 71 28 3d 47 bc f8 3d 24 20 2d 3c e9 ef a7 3d
       0.041123725 0.12145286 0.010566745 0.08200056
000150 ed 6c eb ba 95 11 06 3d 27 13 db 3c ac 4f 76 3b
       -0.001796154 0.03273161 0.026742531 0.003758411
000160 67 5b 94 3d ef 66 3b be de fc 36 be 45 f5 de bd
       0.07243996 -0.18300985 -0.17869899 -0.10886625
000170 ac 83 dc bd 63 91 26 bd ed 6e 83 3c b9 b8 4a be
       -0.10767302 -0.040665995 0.016044104 -0.19797029
000180 91 ac c1 bd 60 03 05 3e 1d 1e 30 be c3 fa 2c bd
       -0.094567426 0.12989569 -0.17198987 -0.042231333
000190 6a d5 32 3d 11 c5 1e be 50 0c 13 be b5 35 18 3d
       0.04366056 -0.15504862 -0.14360166 0.037160594
0001a0 2b c2 b7 bd 91 0e 12 bd 60 49 da bc aa 7c 89 3c
       -0.089725815 -0.035658423 -0.026646316 0.016783077
0001b0 8a 01 92 3c 19 5a 93 3d e8 61 42 3d 7b 85 9b bd
       0.017823 0.07194919 0.047456652 -0.07593819
0001c0 92 c9 46 be e2 e9 23 be a6 0f a3 bd 63 ca 16 bd
       -0.1941283 -0.16007188 -0.07961969 -0.036814105
0001d0 22 bf 5c bd f7 3e 88 3d 4e b8 5e 3d d6 33 e9 bc
       -0.053893216 0.066526346 0.054374985 -0.0284671
0001e0 e2 0d 8c bd 26 32 53 3b 19 1a ab 39 d8 34 73 3e
       -0.068385854 0.0032225936 0.00032635106 0.23750627
0001f0 50 f5 44 3d e7 de 38 bd fb c8 26 3d fa f5 07 be
       0.04808551 -0.04513445 0.040719014 -0.13277426
000200 65 42 39 bd 89 0f af 3d d3 eb cb 3d 8e d7 0c 3e
       -0.045229334 0.08547885 0.09957089 0.13754103
000210 d2 75 f8 bd 02 1a 89 3d 2d e7 59 bc bf d1 12 be
       -0.121318474 0.06694414 -0.0132997455 -0.14337824
000220 ba 9b f7 3d 10 ee 5c be dd 11 f8 bd 2d b3 0b bd
       0.12090249 -0.21575189 -0.12112782 -0.034106422
000230 7d d6 e3 bd dc 79 6a 3d 88 b2 0f 3d 15 18 b1 3d
       -0.11124895 0.05724512 0.03508237 0.086471714
000240 34 03 ad 3d 68 38 e3 3b 77 5a 46 be 34 b4 d6 3d
       0.084478766 0.0069342144 -0.19370447 0.1048359
000250 c4 e9 4e 3d de 01 1c be 77 31 7d 3c 18 e5 c1 3d
       0.050515905 -0.15235087 0.015453688 0.09467524
000260 35 4b b7 3d 04 7c e4 ba 7c 6c e2 3d a0 d2 f9 3d
       0.089498915 -0.0017431979 0.11055848 0.12198377
000270 a8 b3 5c 3e 6a 70 02 3e 58 56 70 bd 2d 18 bf bd
       0.21552908 0.12738195 -0.058676094 -0.09330783
000280 42 e3 6f 3d 37 e3 5c bd 4a f9 df 3d 3e 23 93 bb
       0.05856634 -0.053927626 0.1093622 -0.004490285
000290 cf d7 81 3d 00 90 a8 3d f2 12 2f be 76 1e d3 3d
       0.0633999 0.08230591 -0.17097071 0.10308544
0002a0 ea 49 a2 bc 71 d0 f8 bd 12 97 a1 3c 36 36 b1 3d
       -0.019810636 -0.12149132 0.019725356 0.08652918
0002b0 da 09 a5 bd 03 46 81 3d e1 ea dd bc 60 0d d2 3d
       -0.0805852 0.06312182 -0.027089538 0.10256457
0002c0 12 b4 5f bd 9e 8a de 3d 5e 5c 7f bd da 6e 06 3d
       -0.054615088 0.10866283 -0.062343948 0.03282056
0002d0 f3 0f 98 3d bc f6 14 3e a5 2e f4 3d bf 3c ec bd
       0.07424917 0.14547247 0.11922959 -0.11535024
0002e0 72 db 57 3d ea 26 7f 3d 43 dc 6b 3d ef 69 57 bd
       0.052699514 0.06229297 0.057583105 -0.05259126
0002f0 1c 61 26 bc a0 29 19 3e 80 77 7f 3d c0 d4 7b 3e
       -0.010154989 0.14957285 0.062369823 0.24592876
000300 d8 5f e2 bc 25 c3 48 3d 7b 37 e5 3c cc 53 62 bd
       -0.027633592 0.04901423 0.027980557 -0.055255696
000310 6b fe e6 bd ff 58 0b be 89 d4 c9 bd be a8 19 3b
       -0.11278995 -0.13608168 -0.09854991 0.0023446525
000320 16 8c 0b 3e 02 53 5d 3e 0d 3b 17 bd 57 70 5d 3e
       0.13627657 0.21613696 -0.03692155 0.21624885
000330 30 5a cd 3b e4 55 03 3e 03 37 5c bd 36 f6 d2 bd
       0.0062668547 0.12825733 -0.0537634 -0.10300867
000340 5a 41 01 be f0 da 45 bd a1 5c 6f bc 91 a1 07 bd
       -0.12622586 -0.0483045 -0.014609487 -0.033113066
000350 4b 00 15 be 2c 26 af 3d b1 a8 91 3d 45 95 6c 3d
       -0.14550893 0.085522026 0.071122535 0.057759542
000360 11 f4 25 bd 32 90 b9 3b 78 f9 83 bd 8f a4 b0 3d
       -0.040515963 0.0056629414 -0.06444067 0.08625137
000370 3b fa 79 3d ca 7c 5f bd f0 cb c2 bd 04 85 60 bd
       0.061029654 -0.054562367 -0.09511554 -0.054814354
000380 d3 20 6e 3c 16 16 99 bd ee 43 65 3c d0 30 95 3d
       0.014534193 -0.07474916 0.0139932465 0.07284701
000390 3c 1c f0 bd b1 45 80 3d c3 d8 00 3e dc 58 34 3c
       -0.11724135 0.062632926 0.12582688 0.011007514
0003a0 b1 4a df bc d1 39 af bd 07 8d 7b 3d c2 41 29 3d
       -0.027257295 -0.085559495 0.06141379 0.041322477
0003b0 35 80 22 be fc a6 b5 3d d7 7e 49 bd 4a 82 6a 3e
       -0.1586922 0.0886974 -0.04919323 0.22901264
0003c0 d1 e6 5c 3e 86 74 27 bd 30 d8 ba bd 40 6f 5a bd
       0.21572424 -0.04088261 -0.09123266 -0.053328753
0003d0 6e 5d 99 3c 90 7d 1a 3e 08 4a 20 bd ee ea 4c be
       0.018721309 0.15086961 -0.0391331 -0.20011494
0003e0 5d 27 16 3e 9f 73 09 bd 01 47 17 3d b2 0c 86 bd
       0.14663453 -0.03355753 0.03693295 -0.0654539
0003f0 b6 cf ba 3d 3a 45 5d 3d 12 27 e4 3c a3 0b b9 bd
       0.09121649 0.054021098 0.027850661 -0.09035423

fc_net.3.bias f4 [84]
000000 3f 89 9b bd 5d 54 c2 bd ee 28 1e 3b df 29 a0 bd
       -0.07594537 -0.09488747 0.0024133283 -0.07820486
000010 9d 25 11 3c 5b da b2 3d 4f cc 9f bd 6c 51 d6 3d
       0.008859065 0.08733054 -0.07802641 0.10464749
000020 6f 41 1a 3d a8 7e 52 bd e6 da 9f 3c 23 67 27 bb
       0.03766006 -0.05139032 0.019513559 -0.0025543652
000030 df b6 2b 3c 07 7c 23 bd 45 e9 a7 bc 4d 0c d7 3c
       0.010480612 -0.039913204 -0.020496974 0.026250983
000040 d6 04 94 bd 7a df 66 bd f6 51 59 bd 32 8f 33 bd
       -0.07227485 -0.056365468 -0.05305668 -0.043837734
000050 b6 f7 44 3d 23 d3 9e 3d 93 08 66 3c ee f2 24 bd
       0.048087798 0.07755115 0.01404013 -0.04027074
000060 bd 6e e8 bd 45 a6 db 3d 49 83 54 3d b9 a5 07 bd
       -0.11349247 0.10725073 0.051883016 -0.03311703
000070 74 58 e7 bc 7d f5 15 3d 67 b6 f1 bd c5 7d 03 bd
       -0.02824042 0.03661107 -0.118023686 -0.032102365
000080 3b 31 8d bc 3d b7 b6 bc a2 1f 6c bd dd 29 00 3d
       -0.017235389 -0.022304172 -0.057647355 0.031289924
000090 17 f7 b6 bd 13 2c 8c 3c 73 47 81 3d 06 25 31 3c
       -0.089338474 0.01711086 0.06312456 0.01081205
0000a0 51 42 ad 3c fb 90 44 bd cf 91 8c bd cb cd e2 3d
       0.021149786 -0.047989827 -0.06863748 0.11074408
0000b0 0b 33 0e 3c a2 ea 0c 3c bb 78 5d 3d 1b a2 22 3c
       0.008679162 0.008600863 0.054070216 0.009926344
0000c0 b1 15 60 bd cd fa bf 3d 24 da 3c 3c 63 65 5a bd
       -0.054708187 0.09374008 0.011526618 -0.053319346
0000d0 99 a0 00 3b 9b 9f 62 3c fa 32 a8 bd a4 e8 01 3d
       0.0019626974 0.013831998 -0.08212848 0.031716004
0000e0 cf 02 1c 3d db 52 79 bc 96 98 44 bd ce cb 13 bd
       0.038088616 -0.015217508 -0.04799708 -0.036083035
0000f0 ff 5d b4 3b e3 70 fb bc 5b ef 48 3d 98 e7 bb bc
       0.0055043693 -0.030693477 0.049056392 -0.022937581
000100 d4 5b 53 bd dd 0a 70 3d f1 03 c3 3b c2 18 91 bd
       -0.051601246 0.05860411 0.0059513976 -0.070848
000110 2d 2b d3 3b de 09 68 3d 85 f4 b6 3d 8b 2b 88 bd
       0.006444356 0.056650035 0.08933357 -0.0664893
000120 29 5d 28 bd 33 17 04 3d 9c af 95 bc 57 6c 90 bd
       -0.04110447 0.032248687 -0.018272214 -0.07051914
000130 27 0b 62 bc 0e a8 e3 bd 88 cf 31 bd 7c 06 92 bc
       -0.013796604 -0.11116038 -0.043410808 -0.017825358
000140 a0 23 95 3c 69 79 53 bc 9f 8a 6f bd 6b 7a a4 bd
       0.018205464 -0.012907364 -0.05848181 -0.08031162

fc_net.5.weight f4 [10, 84]
000000 1f e7 ae bd 35 d6 01 3d f0 52 03 3e 29 de 2d 3e
       -0.085401766 0.031698424 0.12824607 0.16979279
000010 6a cf 65 be 9b 44 49 be 38 3f 65 bd 03 da d3 bd
       -0.22442403 -0.19655077 -0.055968493 -0.10344317
000020 ed a6 bf 3d 97 b0 b6 be fa ef 2b bd 4e f9 40 3d
       0.093580104 -0.35681602 -0.041976906 0.047112755
000030 80 cc bb be f6 96 9c be 1a e9 0a 3e af 8e 4a bc
       -0.3667946 -0.30583924 0.13565484 -0.01236312
000040 43 aa ab 3d 89 ab 4a 3e 40 1b 39 3e 06 b1 12 3e
       0.08382084 0.19791998 0.18076801 0.14325342
000050 ba f5 b2 3d 7c 1e 84 3e e8 ad f7 3c 7c 36 2a be
       0.08738275 0.25804508 0.030234292 -0.16622347
000060 72 6b 98 be 2e 86 c7 bc b0 e0 ef be fb 70 18 be
       -0.29769474 -0.024355974 -0.4685111 -0.14886849
000070 6a a7 8f 3e ed b3 0f 3e 9d 99 c6 3e aa f4 b3 3d
       0.28057414 0.1403348 0.38789073 0.087869
000080 a5 a5 89 be 3b 6e 67 3e c5 49 3d 3e 33 29 39 be
       -0.2688419 0.22600643 0.18485172 -0.18082123
000090 44 68 91 3e 16 10 1f 3e 77 c8 06 3e 60 df 93 3e
       0.2839986 0.1553348 0.13162409 0.2888136
0000a0 0f 89 5a 3e 26 76 5c 3e a6 5d 8f 3e 00 d8 92 3e
       0.21341346 0.21529445 0.28001136 0.2868042
0000b0 a7 2f bd be 58 b7 a2 be da 5a 02 bf a1 2c 85 bd
       -0.36950418 -0.31780505 -0.5091988 -0.06502653
0000c0 e9 19 9f be 65 c5 3d be 93 59 97 be 26 99 a7 bd
       -0.31074455 -0.18532331 -0.29560527 -0.081835076
0000d0 33 7d 73 3e c9 bb f4 3d f1 5b a3 bd 80 bc a6 3d
       0.23778228 0.1194988 -0.07976521 0.08141422
0000e0 56 0d 36 3d c7 ec 36 bb d8 ba fc 3d be e0 42 3e
       0.044446312 -0.0027912126 0.12340325 0.19031045
0000f0 ac cc b4 3e 20 ea 31 3e f4 b9 a7 3e 13 2b 04 3e
       0.35312402 0.17374468 0.32759058 0.12907057
000100 3a 28 2f 3e ed 25 f3 be 5c f2 72 be 69 75 b5 3e
       0.17105189 -0.47489873 -0.23725265 0.3544114
000110 36 7e b2 3b 00 d1 ad 3d 6e d8 16 be 7f e9 9d 3e
       0.0054471744 0.08487129 -0.14730999 0.30842206
000120 1d 1f 1e 3e 20 e7 b0 be 78 ea 6b 3e 83 f9 05 be
       0.15441556 -0.34551334 0.23038661 -0.13083462
000130 f7 26 49 3e 48 cc 84 3e 02 20 18 3e 8d 78 68 be
       0.1964377 0.25937104 0.1485596 -0.22702236
000140 dd a6 cf bd 24 1a f9 bd bc 99 95 3e 87 4d b8 3e
       -0.101392485 -0.12163189 0.29218853 0.3599665
000150 9b 00 6f 3e b0 a4 08 be 7f 43 3c bd dd 9b 9f bd
       0.23340075 -0.13344073 -0.045962807 -0.077934004
000160 4a d2 1b 3d ca ae ab 3d b4 1f 09 bc 94 6d 7e 3e
       0.038042344 0.08382948 -0.008369375 0.24846488
000170 e6 fb d3 3d d8 17 4d 3e c0 2e a3 3e fc 46 a5 be
       0.1035078 0.20028627 0.31871605 -0.3228072
000180 60 32 b9 be fb c4 39 bd 27 42 ee bd 7d 5d 8c 3e
       -0.36171246 -0.04535387 -0.11633711 0.27415076
000190 de ee 8e be ea 46 5c be 2e 33 88 be 1b 4a 94 be
       -0.27916616 -0.21511427 -0.26601547 -0.28962788
0001a0 9b 0c 39 3e 91 b1 49 3e f1 a6 70 3e a7 b2 53 3e
       0.18071215 0.19696642 0.23501183 0.20673619
0001b0 ae 7b 3f 3d 91 4e 84 3e 80 b5 fa 3d 0e 0c 7a 3e
       0.04674881 0.2584119 0.1224165 0.24418661
0001c0 2b bd 1e bd f4 1b 5a 3d e0 ed 01 be c6 0e 97 be
       -0.038754623 0.053249314 -0.12688398 -0.2950346
0001d0 68 40 60 be b7 0c 33 be 90 c0 5a 3e 30 b5 8a 3e
       -0.21899569 -0.17485319 0.2136252 0.2709136
0001e0 e5 f8 8b be 23 07 28 be e0 42 6e be bf 5e ba bd
       -0.2733833 -0.16408972 -0.23267698 -0.09100103
0001f0 d6 50 a3 be ba da f5 3d dc 21 b1 bc cb 0d 9f 3e
       -0.3189761 0.120046094 -0.02162259 0.3106521
000200 65 a8 3c 3e 2b 5e 81 be d5 de 88 be ce a9 d8 3e
       0.18423612 -0.25267157 -0.26732507 0.4231705
000210 43 38 8d be 9c ed 84 3e 31 54 69 3e bd 69 a7 3e
       -0.27581987 0.25962532 0.22786023 0.3269786
000220 0d 21 71 be cf cc 88 3e cd 33 6e 3e 9f ae 44 be
       -0.23547764 0.26718757 0.23261948 -0.19207238
000230 c9 b7 ce 3e c0 a4 8f be 60 43 90 be 25 55 77 be
       0.40374592 -0.28055382 -0.28176403 -0.24153574
000240 6d 84 4c be 17 7b 6d be f4 f4 3d be 9c 88 77 be
       -0.19972391 -0.23191486 -0.18550473 -0.24173206
000250 4d 7e bd be 10 a3 f6 be fa 74 d7 bd 88 a0 ea bd
       -0.37010422 -0.48171282 -0.105203584 -0.114564
000260 3c 71 cb 3e 66 35 9a be a8 eb 8d 3e 2a 61 15 be
       0.39734828 -0.30118865 0.27718854 -0.14587846
000270 54 a8 0f bd e0 81 25 3e b6 f8 72 be de fc a9 3e
       -0.03507264 0.16162825 -0.23727688 0.33200735
000280 68 d9 b9 3e 4d 57 60 be ff 2c 4d be ad ff 48 be
       0.3629868 -0.21908303 -0.20036696 -0.19628783
000290 f1 e9 ab 3e 8e fd 8c 3e ea 5f 5a be 64 9b 4e bb
       0.3357692 0.27537197 -0.21325651 -0.0031525725
0002a0 f2 48 aa bd be 22 28 3e 72 9b a1 3e 40 f6 ba 3c
       -0.083146945 0.16419503 0.31563908 0.0228225
0002b0 a3 bf 77 3e f1 0f 08 3e f9 45 90 3e df f5 06 be
       0.24194197 0.13287331 0.28178385 -0.1317973
0002c0 62 63 6a be 3d 4e 89 be b9 53 73 bd 2c ee 5e be
       -0.22889474 -0.26817504 -0.059406016 -0.21770543
0002d0 9b e2 88 be 7d 63 68 be b7 48 64 3e 07 8e 36 be
       -0.26735386 -0.22694202 0.22293364 -0.17827617
0002e0 c2 3b ea 3d eb a2 71 be 89 46 42 be fc 24 4c 3e
       0.11437179 -0.23597305 -0.1897222 0.19935983
0002f0 b4 97 31 3e d5 be be 3e 06 17 98 3e e7 ec 90 be
       0.17343026 0.37254968 0.29705065 -0.28305742
000300 f4 49 ad bc e4 c0 d3 3e c5 17 62 3e c8 d9 0e be
       -0.021153428 0.413581 0.2207938 -0.13950264
000310 59 4f d7 3d e5 e5 88 3e 0d c3 e8 3e 60 a8 57 3e
       0.10513181 0.26737896 0.45461312 0.21060324
000320 15 f8 95 3e 61 d4 de 3e 68 ae 2b be 4a a5 c3 3e
       0.29290834 0.43521407 -0.1676575 0.38212043
000330 20 ad af 3d 56 ac 82 be c8 8e ef bd 28 c2 43 be
       0.08577943 -0.25522107 -0.11697155 -0.19117033
000340 a8 33 6e 3e 8e ba e2 bc 24 7e 0e be fc a0 3b be
       0.23261893 -0.027676847 -0.13915306 -0.1832313
000350 0a 90 83 3e 99 5b 6a be 2b 0f 09 bc 1b f2 c0 bd
       0.2569583 -0.22886504 -0.008365433 -0.09421178
000360 e3 83 9c be f3 55 c0 3e 20 92 49 3d c0 0e 5e 3e
       -0.30569372 0.37565574 0.04921162 0.21685314
000370 66 a5 50 3e d7 23 28 3e 0b 85 24 be 50 01 92 3c
       0.20375594 0.16419922 -0.16066377 0.017822891
000380 03 39 ca be 42 64 67 3d 46 f2 3e be 40 a5 81 bd
       -0.3949662 0.056492098 -0.18647107 -0.06330347
000390 5e f1 95 3e 3c 05 b0 3e 92 2b d4 bd c6 97 cd be
       0.2928571 0.34378994 -0.10359873 -0.40154856
0003a0 e9 7a b7 be 2d 77 2d 3e eb 4b a2 be 30 b7 9d 3b
       -0.3583596 0.16939993 -0.31698546 0.0048130974
0003b0 b4 37 02 be 2f a5 9e bc 32 28 37 3e b8 ec 06 3e
       -0.12716562 -0.019365875 0.17886427 0.13176239
0003c0 7e 74 f9 bd 29 aa 1a 3e 33 ba 95 be 91 84 d8 be
       -0.12180422 0.15103973 -0.2924362 -0.4228864
0003d0 33 a5 3c 3e 77 be 57 be c3 13 1a be a8 93 8a 3d
       0.18422394 -0.2106875 -0.15046601 0.067664444
0003e0 3a 50 b0 3e dc bc 8b be 6c f3 9a 3e e3 91 8d be
       0.34436208 -0.27292526 0.3026384 -0.27650365
0003f0 e2 78 9a 3e 72 0d 13 3e 01 13 82 be 64 35 42 3d
       0.3017035 0.14360598 -0.25405124 0.0474142

fc_net.5.bias f4 [10]
000000 86 9e e6 ba 30 2c 1e 3e a1 ab ae 3d f4 89 d6 bd
       -0.0017594851 0.15446544 0.08528829 -0.10475531
000010 c3 3d 2c bd a3 69 67 3d f5 16 99 3c e4 f4 9a 3d
       -0.042051088 0.056497227 0.018687705 0.075662404
000020 c7 8d b1 bd 21 6c 27 bc
       -0.0866962 -0.010218651
